are_go_are_go.tflite (tflite, 206964 bytes, 9 tensors)

arith.constant f4 [1, 32]
0	0x3bd18f06	0.0063952236
1	0x3dcd9f75	0.1004018
2	0xbea58184	-0.32325375
3	0x3b1d2009	0.0023975393
4	0xbeb0e80e	-0.34552044
5	0x3c4de7b9	0.012567454
6	0x3da69b2d	0.08135066
7	0xbea29410	-0.31753588
8	0xbeb2b6bb	-0.34905037
9	0xbeaac3b5	-0.33352438
10	0xbdf71287	-0.12064081
11	0x3d9555ae	0.07291733
12	0xbeabd4e5	-0.33560863
13	0xbea7e6d7	-0.32793304
14	0x3c8a70ce	0.016899493
15	0x3d2c803c	0.04211448
16	0x3dbbbda5	0.09167031
17	0x3e221f4a	0.15832248
18	0x3de7bccb	0.11315306
19	0x3d8ec660	0.06971431
20	0x3e1b3e6d	0.15160532
21	0x3d9c42be	0.076299176
22	0x3d8b4d85	0.06801895
23	0x3d8f2e95	0.06991307
24	0xbe9b3978	-0.30317283
25	0x3d1e30f0	0.03862089
26	0x3da092ca	0.07840498
27	0xbeafe35d	-0.34353152
28	0x3e2df5d5	0.16988309
29	0x3d01ff69	0.03173772
30	0x3e2b015d	0.16699739
31	0x3da7c3ed	0.08191667

arith.constant1 f4 [32, 32]
0	0x3d8258dc	0.06364605
1	0xbddb1b6e	-0.10698591
2	0xbce97e66	-0.028502654
3	0xbd4d0cac	-0.050060913
4	0xbd9c5dbf	-0.07635068
5	0xbdd29180	-0.10281658
6	0xbe326ae0	-0.17423582
7	0xbddf1c4d	-0.1089407
8	0xbde3b314	-0.11118141
9	0xbd694ece	-0.05695992
10	0x3d2ea359	0.04263625
11	0x3d4f7312	0.05064685
12	0xba892be0	-0.0010465346
13	0x3cd8b7e9	0.026454883
14	0x3ddee361	0.10883213
15	0x3ddcf74e	0.10789357
16	0xbc36c9d5	-0.011156519
17	0x3de82b7f	0.11336421
18	0xbdc84041	-0.097778805
19	0xbd87b2a4	-0.0662587
20	0x3e0a23d4	0.1349023
21	0xbda4cccd	-0.08046875
22	0xbe0f3a93	-0.13987188
23	0x3e03eb07	0.12882625
24	0xbe099807	-0.134369
25	0xbe2f823b	-0.17139523
26	0xbdf7175e	-0.12065004
27	0xbcaca17d	-0.021073097
28	0xbe080f12	-0.13286999
29	0x3e019eef	0.12658285
30	0x3e0f633b	0.14002697
31	0xbdd61e04	-0.10454944
32	0xbdc97758	-0.09837216
33	0x3bc5fc9f	0.0060420777
34	0x3ded83b5	0.11597387
35	0xbc89e2bd	-0.01683175
36	0xbdee2d00	-0.11629677
37	0xbdad6fcb	-0.084685884
38	0xbe2e73d1	-0.17036368
39	0x3e2dd286	0.1697484
40	0x3e10d5dd	0.14144082
41	0xbd24e27c	-0.040255055
42	0xbdfb9847	-0.12284904
43	0x3dba07ca	0.09083517
44	0x3b1466bb	0.002264424
45	0x3d89ade3	0.067226194
46	0x3e065d7d	0.131216
47	0x3d8b6e66	0.06808166
48	0xbe1ae58f	-0.15126632
49	0x3e1cc098	0.15307844
50	0xbd80d432	-0.06290473
51	0xbe258317	-0.16163288
52	0xbd918910	-0.07106221
53	0x3dac51a1	0.08414007
54	0xbda3c871	-0.079972155
55	0xbdaf359b	-0.08555146
56	0x3e016693	0.12636785
57	0xbe1bee89	-0.15227713
58	0xbc3ca2b0	-0.011513397
59	0xbdb19143	-0.086702846
60	0x3d730da5	0.059339184
61	0x3dfaefbf	0.12252759
62	0x3e4b1c2d	0.19834967
63	0xbc9c840e	-0.019105937
64	0x3c65d5e4	0.014028046
65	0x3de3f518	0.11130732
66	0xbd8da310	-0.06915867
67	0xbe46b61d	-0.19405408
68	0x3da5603b	0.08074995
69	0xbd9441d3	-0.072391175
70	0xbe1ea2bd	-0.15491767
71	0xbdcafb08	-0.09911162
72	0xbe192477	-0.14955316
73	0x3e127aaf	0.14304613
74	0x3b818c48	0.0039534904
75	0x3d905764	0.070479184
76	0xbdcb1501	-0.099161156
77	0xbd79de47	-0.061002996
78	0xbd93bcdf	-0.07213759
79	0xbe0c1070	-0.13678145
80	0x3e386b79	0.18009748
81	0x3e1a8824	0.15090996
82	0xbe1af590	-0.15132737
83	0x3dcc516f	0.0997647
84	0xbdf679a8	-0.12034923
85	0xbc06dd76	-0.008231511
86	0x3dd4921c	0.10379431
87	0x3c90cdc0	0.017676234
88	0xbdf236fa	-0.11826892
89	0xbb95d716	-0.0045727594
90	0xbe1b70ac	-0.151797
91	0x3e112a01	0.1417618
92	0xbd80cfce	-0.062896356
93	0x3e10288b	0.14077966
94	0x3cebf130	0.02880153
95	0x3e14115e	0.1445975
96	0x3e0b6de9	0.13616146
97	0xbc5e43bd	-0.013565955
98	0x3e07334a	0.13203159
99	0x3a0871d1	0.0005204948
100	0xbc29ed6c	-0.010371547
101	0xbe048cf3	-0.12944393
102	0xbdd3cb20	-0.103414774
103	0xbdf5fec6	-0.12011485
104	0xbc6ea84f	-0.014566495
105	0x3c4e2df2	0.012584196
106	0xbd8822da	-0.066472724
107	0xbd2053af	-0.039142307
108	0x3ccf0933	0.025272941
109	0x3db99d35	0.09063188
110	0x3d681e29	0.056669388
111	0x3d4744e6	0.04864969
112	0xbd28c5df	-0.04120433
113	0x3cc4d2a4	0.024026223
114	0x3dd68732	0.10475005
115	0xbdd1eb42	-0.1024995
116	0xbdb40e8e	-0.087918386
117	0xbb8378c2	-0.004012198
118	0x3d4212e6	0.047381304
119	0xbdef251e	-0.116770014
120	0xbe010f12	-0.12603405
121	0xbe2646f5	-0.16238005
122	0x3d9e16e6	0.07719211
123	0x3e2d1e94	0.16906196
124	0xbd047720	-0.03234017
125	0xbde68e68	-0.112576306
126	0xbdd88ee2	-0.10574128
127	0x3dd0dd5f	0.10198473
128	0xbde2d0d1	-0.11074985
129	0xbe0a88e0	-0.13528776
130	0x39437ef9	0.0001864395
131	0xbe22d49a	-0.15901414
132	0x3ca199b4	0.019726612
133	0x3e368a85	0.17826279
134	0xbdc97490	-0.09836686
135	0x3d7e1125	0.06202807
136	0x3d9db1fc	0.076999635
137	0x3d10ef55	0.035384495
138	0x3dd9d796	0.10636823
139	0x3dc9158a	0.098185614
140	0x3e07c1b9	0.13257493
141	0xbc34cdd4	-0.011035401
142	0xbce3ef6d	-0.027824128
143	0xbe19a10e	-0.15002844
144	0x3e0113d1	0.12605216
145	0x3e0cac04	0.13737494
146	0xbc2f0449	-0.010682174
147	0xbdd32f19	-0.103117175
148	0xbda882aa	-0.08228047
149	0xbc97db6c	-0.018537246
150	0xbd6cd60b	-0.057821315
151	0x3cb17050	0.02166
152	0xbe1d1092	-0.15338352
153	0xbd4ff97e	-0.050775044
154	0xbd4fd9f5	-0.05074497
155	0x3d50b77c	0.050956234
156	0x3e27d742	0.16390708
157	0x3e14a6dd	0.14516778
158	0x3de0068c	0.10938749
159	0xbdde722b	-0.108616196
160	0x3dd40c79	0.103539415
161	0x3bff2f77	0.0077876407
162	0xbe2c4acb	-0.16825406
163	0x3d0726bf	0.032995936
164	0xbd279f40	-0.040923357
165	0x3d8b0880	0.067887306
166	0x3df487ff	0.11940002
167	0xbdeac2b2	-0.114629164
168	0x3cb8ffdc	0.02258294
169	0xbddfec2b	-0.10933717
170	0xbc931678	-0.01795505
171	0xbd013aeb	-0.03155033
172	0x3d8f3c7a	0.06993957
173	0x3e04218f	0.12903427
174	0xbccca55e	-0.024981197
175	0x3d5a553c	0.053303942
176	0x3d6d5eb3	0.05795164
177	0x3e1dfaaa	0.15427652
178	0xbe28ab89	-0.16471685
179	0x3ceec3a5	0.029146025
180	0x3d700f69	0.058608446
181	0xbcd7dd52	-0.026350651
182	0x3e30b8dc	0.17258018
183	0xbdd9e94d	-0.10640202
184	0x3cf2dffb	0.029647818
185	0x3a80c617	0.000982466
186	0xbb077d64	-0.0020674104
187	0x3dab11e7	0.08353024
188	0x3e184351	0.14869429
189	0xbd1189e9	-0.035531912
190	0x3dc68fe0	0.09695411
191	0xbca17c4d	-0.019712592
192	0x3e088d73	0.13335209
193	0x3e023613	0.1271594
194	0x3d278c6c	0.0409054
195	0x3b6cce31	0.0036133642
196	0xbe057821	-0.13034107
197	0xbdf0c2b4	-0.11755887
198	0xbe24aa79	-0.16080655
199	0xbdedb0c1	-0.11605979
200	0xbe1d4317	-0.15357624
201	0xbd1bedf7	-0.038068738
202	0x3d78e640	0.06076646
203	0x3e133a30	0.14377666
204	0x3dd6ab57	0.10481899
205	0xbe1393f5	-0.1441191
206	0xbdd8e631	-0.105907805
207	0x3e1a52fb	0.15070717
208	0xbe2f68f4	-0.1712988
209	0xbc613418	-0.01374533
210	0xbe2d0e8b	-0.16900079
211	0xbd2884b5	-0.041142184
212	0xbe1efc9a	-0.15526047
213	0xbd33ba00	-0.043878555
214	0xbd0233df	-0.03178775
215	0xbd9db8c2	-0.077012554
216	0x3cf2fd69	0.029661851
217	0xbe16e87d	-0.14737125
218	0x3c77ce4f	0.015124871
219	0x3e10c4ce	0.14137575
220	0x3dcd9958	0.100390136
221	0x3dc0bf44	0.09411481
222	0x3e106bfb	0.14103691
223	0xbc86ad29	-0.016439991
224	0xbd535f44	-0.051604524
225	0x3e285274	0.16437703
226	0x3ca816b9	0.020518648
227	0xbdbdba9a	-0.09264107
228	0x3e208772	0.15676668
229	0xbe1584ca	-0.14601436
230	0xbde1fb92	-0.11034311
231	0xbddc31d2	-0.1075169
232	0x3bf0f3bb	0.0073532737
233	0x3db4e449	0.088326044
234	0xbd4dbd8c	-0.050229594
235	0xbda362fc	-0.07977864
236	0xbd90791a	-0.07054348
237	0x3e18112e	0.14850304
238	0x3d377307	0.044787433
239	0x3d85a299	0.06525154
240	0xbde92659	-0.11384267
241	0xbe121c4b	-0.14268605
242	0x3e0b176f	0.13583158
243	0x3d16ec65	0.036846537
244	0x3d60e214	0.054903105
245	0xbda62f17	-0.081144504
246	0x3dd4f2d4	0.10397878
247	0x3ded5b32	0.1158966
248	0x3de2fd4f	0.11083471
249	0xbdc43852	-0.09581055
250	0x3d904eb6	0.07046263
251	0xbd7869da	-0.060647823
252	0x3b786cde	0.0037906687
253	0x3d70a683	0.058752548
254	0x3dfc1434	0.12308541
255	0x3e26135a	0.1621832

arith.constant2 f4 [32, 1536]
0	0x3cc749ec	0.02432724
1	0xbc87c954	-0.016575493
2	0xbd44c7c3	-0.04804207
3	0xbd0c0b93	-0.034190726
4	0x3d3d07b6	0.04614993
5	0x3cbe4e5c	0.023230724
6	0x3bf8eef3	0.0075968443
7	0xbc7d901b	-0.015476252
8	0xbcaebc80	-0.021330118
9	0xbb21f93a	-0.00247152
10	0x3c252e4a	0.010081837
11	0x3c9031d2	0.017601881
12	0xbc7d897d	-0.015474674
13	0x3cf8865f	0.03033751
14	0xbcbd0aa9	-0.023076372
15	0xbd3817d5	-0.044944603
16	0xbceb53f7	-0.028726561
17	0x3d18daca	0.03731803
18	0xbb6d518e	-0.003621194
19	0x3c604eac	0.013690632
20	0x3cabfcf9	0.02099465
21	0x3cff070a	0.031131286
22	0x3d261621	0.040548448
23	0xbd21f002	-0.03953553
24	0x3c94003e	0.018066522
25	0x3d3ac869	0.045601282
26	0x3aa2029d	0.0012360398
27	0x3cbeb536	0.023279767
28	0x39a9ca78	0.00032385043
29	0x3c556da5	0.01302663
30	0x3c0ae9a2	0.008478554
31	0xbb5c5474	-0.0033619674
32	0x3c84db40	0.016217828
33	0xbd158042	-0.03649927
34	0xbcbed81e	-0.023296412
35	0xbbffe431	-0.007809185
36	0xbc32d910	-0.01091601
37	0xbc35b78c	-0.011091124
38	0xbb2d1a54	-0.0026413398
39	0xbc7ff1b4	-0.015621591
40	0x3c2b23a2	0.010445507
41	0xbbf2a445	-0.0074048364
42	0xb946ade2	-0.00018947528
43	0x3cae3121	0.02126366
44	0xbaf1373a	-0.00184033
45	0xbbb08d13	-0.005387911
46	0xbbfa4b49	-0.007638369
47	0xbc2bfbde	-0.010497062
48	0xbccb0011	-0.024780305
49	0x3d500829	0.050789032
50	0x3c044e7b	0.008075352
51	0xbc61ae1f	-0.013774424
52	0xbccc7b69	-0.02496119
53	0xbc9c8844	-0.019107945
54	0xbc4c7103	-0.012478116
55	0xbbfd0883	-0.007721962
56	0x3c8e2a3f	0.017354129
57	0x392a12bd	0.00016219444
58	0x3c70bcd7	0.01469346
59	0xbd009c09	-0.031398807
60	0xbc7d444e	-0.01545818
61	0xbc3b14c4	-0.011418525
62	0xbc6db122	-0.014507564
63	0xbcf22422	-0.029558245
64	0xbace452b	-0.0015737166
65	0x3bec1cb2	0.007205569
66	0x3da25698	0.07926673
67	0xbc9c3894	-0.019069947
68	0x3ceaf4c3	0.028681165
69	0xbbd8c2e5	-0.00661503
70	0x3c916683	0.017749077
71	0xbbf894f5	-0.0075861164
72	0xbc4c6c20	-0.012476951
73	0x3ce7ed27	0.028311325
74	0x3cccb5fe	0.024989124
75	0x3d3a85e8	0.04553786
76	0x3d3a3b31	0.045466606
77	0xbc4294c1	-0.011876286
78	0x3c3627ef	0.011117919
79	0xbcbda7f0	-0.023151368
80	0x3bb7c6d5	0.0056084194
81	0x3c0dd93f	0.008657753
82	0xbcad2b30	-0.021138757
83	0x3c08b026	0.008342778
84	0x3c9d04c7	0.019167317
85	0xbd8a6ed7	-0.06759422
86	0x3d16a206	0.03677561
87	0xbd1fae32	-0.038984485
88	0x3d6be1b0	0.05758828
89	0x3bf6aba0	0.0075277835
90	0x3d2513e2	0.040302165
91	0x3c36e192	0.011162179
92	0x3cbe8ea6	0.02326138
93	0xbc62f966	-0.0138534065
94	0x3ca44615	0.020052949
95	0x3bad135f	0.00528185
96	0x3d03533e	0.032061808
97	0xbbb14aca	-0.005410527
98	0xbc1ecc88	-0.009692319
99	0xbcec87de	-0.02887338
100	0x3cc2520f	0.02372077
101	0x3ca860c7	0.02055396
102	0xbc6988ea	-0.014253834
103	0xbbc775e9	-0.006087054
104	0xbb1e8649	-0.0024188927
105	0x3d0cba24	0.034357205
106	0x3c7910ee	0.01520179
107	0xbd19645c	-0.037449226
108	0xbbee9021	-0.007280365
109	0x3c6a993e	0.014318762
110	0xbccd2ee8	-0.02504678
111	0xbb2a8e88	-0.0026024897
112	0x3ad6d85d	0.0016391386
113	0x3c7c1228	0.015385188
114	0xbd523b1e	-0.05132591
115	0xbba71671	-0.005099111
116	0x3c5d9b01	0.013525725
117	0x3cd014cd	0.025400544
118	0x3d08cf79	0.033400986
119	0x3c288ff6	0.010288229
120	0xbc799654	-0.015233595
121	0x3b2f7598	0.0026772972
122	0xbcee1d1b	-0.029066613
123	0x3c689fba	0.014198238
124	0xbba28a48	-0.004960332
125	0xbd257500	-0.040394783
126	0x3ca328ea	0.01991697
127	0xbbdb79b2	-0.006697857
128	0x3c4c67dd	0.012475935
129	0xbb83ff7b	-0.0040282584
130	0xbd0e073e	-0.034674875
131	0x3c33c0ac	0.0109712295
132	0x3ce0f196	0.027458947
133	0x3c54f7a5	0.012998496
134	0x3ba586cd	0.00505147
135	0xbcc8b08a	-0.024498243
136	0x3c6e90f6	0.014560929
137	0x3a074b51	0.00051610643
138	0xbc2e3ebe	-0.010635076
139	0x3ce73569	0.02822371
140	0x3b4eb49a	0.0031540752
141	0x3c0df208	0.008663662
142	0xbb0a4459	-0.0021097867
143	0xbc30ffe1	-0.010803194
144	0xbd2337ed	-0.039848257
145	0x3cf6fd27	0.03015001
146	0x3b9cfb57	0.004790704
147	0x3d019dd5	0.03164466
148	0xbc4acf66	-0.012378549
149	0x3c26cc55	0.0101805525
150	0xbb0f6b8d	-0.0021884174
151	0xbb6d5829	-0.0036215878
152	0xbc8fbf70	-0.01754734
153	0xbca800c5	-0.02050818
154	0xbc839920	-0.016064227
155	0xbca7ee29	-0.020499306
156	0xbc4ae8fa	-0.0123846475
157	0xbb459708	-0.0030149836
158	0x3d5d1acc	0.053980634
159	0xbc55dc15	-0.01305296
160	0xbc31c41e	-0.010849981
161	0x3ca415a3	0.020029848
162	0x3d52cd88	0.05146554
163	0xbcda3a8c	-0.026639245
164	0xbc97ffbe	-0.018554565
165	0x3c37d750	0.011220768
166	0x3d7c83c9	0.061649118
167	0x3c0c7d2b	0.008574764
168	0x3cd6579a	0.026164819
169	0xbad61c5a	-0.0016335354
170	0xbba3bd4c	-0.004996931
171	0xbc5104ee	-0.012757523
172	0x3d046ec2	0.03233219
173	0xbb832bf4	-0.0040030424
174	0xbc67a7e1	-0.014139147
175	0xbc290761	-0.010316701
176	0x3ca6fa3b	0.020382991
177	0x3c51baf4	0.012800921
178	0xbca9e9e0	-0.020741403
179	0x3c78f781	0.015195728
180	0xbcd73c27	-0.0262738
181	0xbd0bc104	-0.03411962
182	0x3ce86f25	0.02837331
183	0xbd1a9e9e	-0.037748925
184	0x3d641191	0.055680815
185	0xbca10e2f	-0.019660084
186	0x3ca868e6	0.020557832
187	0xbbdc926c	-0.006731322
188	0x3c60d3df	0.013722389
189	0xbca4a629	-0.020098763
190	0x3ba65455	0.005075971
191	0xbbb55a4d	-0.0055344463
192	0x3cbb8ff8	0.022895798
193	0xbb6dbc06	-0.00362754
194	0xbccf440a	-0.025300998
195	0xbd05fc8f	-0.03271156
196	0xbbc28bc3	-0.005937071
197	0x3c7281b8	0.014801435
198	0x3c463e6c	0.0120998435
199	0x3bee93cc	0.0072808024
200	0xbd093400	-0.033496857
201	0x3ca429df	0.020039497
202	0xbc4e1c1a	-0.012579942
203	0x3cb3a11b	0.021927407
204	0xbce305f0	-0.027712792
205	0x3b67b62c	0.0035356386
206	0xbcb55f76	-0.022140246
207	0xbce64f30	-0.028113931
208	0xbcd7ccd0	-0.02634278
209	0x3cc21f56	0.023696583
210	0xbd9156a2	-0.07096602
211	0xbbb2a57e	-0.005451857
212	0x3c6fa1e4	0.014626
213	0xba9ffb44	-0.001220562
214	0xbc11ce47	-0.008899278
215	0xba4b4db9	-0.0007755417
216	0xbbcfed7f	-0.0063454504
217	0x3b191f05	0.0023364436
218	0xbb9111f7	-0.0044271904
219	0xbca34e2d	-0.019934738
220	0x3c1e5394	0.009663481
221	0xba589695	-0.00082621846
222	0x3d01dc4f	0.031704243
223	0xbca8e2a9	-0.020615892
224	0xbc1e9276	-0.009678474
225	0xbc473b3d	-0.01216012
226	0x3c5edae0	0.013601989
227	0xbcd227b4	-0.025653698
228	0xbc7e9472	-0.015538322
229	0x3c301a87	0.010748512
230	0x3ca8c0e9	0.0205998
231	0xba5093d9	-0.00079566013
232	0x3c14ea18	0.009089015
233	0x3d133746	0.035941385
234	0xbc083fbc	-0.008315977
235	0xbc9e4bb3	-0.019323206
236	0x3b595910	0.0033164658
237	0x3b8ad2e6	0.004236567
238	0xbcb1c652	-0.021701012
239	0xbd177d19	-0.036984537
240	0xbcfb4bdb	-0.03067582
241	0x3d2382b1	0.03991956
242	0x3c0a2665	0.0084320055
243	0x3c8f40b0	0.0174869
244	0xbd460d57	-0.048352566
245	0x3cc06858	0.023487255
246	0x3bdab9b5	0.00667497
247	0xbc5adfd4	-0.013359029
248	0x3c55e09f	0.013054042
249	0x3c7194b6	0.014744928
250	0x3b0e4078	0.0021705907
251	0xbc6fa93b	-0.01462775
252	0x3cb62f20	0.022239268
253	0x3ce4e802	0.027942661
254	0x3d4b6cef	0.049664434
255	0xbcfb56b4	-0.030680992

model_8/tf.__operators__.add/AddV2/y f4 [32]
0	0x3cb4a018	0.022048995
1	0xbc9f16e5	-0.019420097
2	0x3b4de4cd	0.0031416893
3	0xbcb53c78	-0.02212356
4	0xbc09c96f	-0.008409842
5	0x3c15dcae	0.009146852
6	0x3b9f8628	0.0048682876
7	0xb90ed2d2	-0.00013620712
8	0xbcd7bd74	-0.026335455
9	0x3cd7b2fa	0.02633046
10	0x3c814ccc	0.01578369
11	0x3c6baf27	0.014385021
12	0xbc9e2b4e	-0.019307759
13	0x3c02d3b3	0.007985043
14	0xbcc02dd1	-0.023459347
15	0x3be5fd79	0.0070187417
16	0x3cdad316	0.026711982
17	0x3c9c75fc	0.019099228
18	0xbc08e61a	-0.008355642
19	0x3cc1c0f9	0.023651587
20	0x3cad24de	0.021135744
21	0xbcb82d81	-0.022482635
22	0x3c317f94	0.01083364
23	0x3c6bbc8c	0.014388215
24	0xbcaf6425	-0.021410057
25	0x3ca16057	0.019699259
26	0xbb79ee4a	-0.0038136416
27	0xbcaaae31	-0.020835014
28	0xbb4a2359	-0.0030843823
29	0xbc775d27	-0.015097893
30	0xbcaa7663	-0.020808404
31	0xbc35e00d	-0.011100781

model_8/tf.__operators__.add_1/AddV2/y f4 [32]
0	0x3e405d47	0.18785582
1	0x3dfe8d95	0.124293484
2	0x3e1337b5	0.1437672
3	0x3e2ec0a3	0.17065673
4	0x3c0f10cc	0.008732032
5	0x3c3f7504	0.011685614
6	0x3d885417	0.06656664
7	0x3dad0e75	0.08450023
8	0x3dd09b1f	0.10185837
9	0x3d0e49e9	0.034738455
10	0xbb656ed0	-0.0035008676
11	0x3d86328e	0.06552611
12	0x3c92e837	0.017932994
13	0x3e416ca1	0.18889095
14	0xbd81d57d	-0.06339548
15	0xbd90c6aa	-0.07069142
16	0xbd85abc2	-0.06526901
17	0xbe38b907	-0.18039332
18	0xbdba4cce	-0.090966806
19	0xbde0c7af	-0.109755866
20	0x3e0a4048	0.13501084
21	0x3dcfa707	0.1013928
22	0xbe295530	-0.16536403
23	0xbe22e51a	-0.15907708
24	0x3d3d9aac	0.046290085
25	0xbdb7f763	-0.08982732
26	0x3c5edde2	0.013602706
27	0xbbf71f21	-0.0075415527
28	0x3cc7ee92	0.024405751
29	0xbd495c83	-0.04916049
30	0x3e276145	0.16345699
31	0xbdb41db3	-0.08794727

model_8/tf.math.add_2/Add/y f4 [1, 32]
0	0x3c16ec1b	0.009211565
1	0xbbe01ac6	-0.006839129
2	0xbb93e2b5	-0.0045131096
3	0x3c28a565	0.010293339
4	0x3cbb4aab	0.022862753
5	0x3bb5cc6e	0.0055480516
6	0xbbce3d93	-0.0062939613
7	0x3c3a6438	0.011376433
8	0xbc212345	-0.009835069
9	0x3ca1cf12	0.01975206
10	0xb9b18b04	-0.00033863646
11	0x3c453ee3	0.012038919
12	0xbb90ff6c	-0.00442498
13	0xbc1d3209	-0.009594449
14	0xbba7ee0d	-0.0051248134
15	0xbc6cf6ea	-0.014463166
16	0x3c8a9d5f	0.016920744
17	0xbba91524	-0.005159991
18	0x3c8a2e04	0.016867645
19	0x3b949e7c	0.0045354944
20	0xbc5644be	-0.013077913
21	0x3bb1217c	0.005405603
22	0xbb6ff276	-0.0036613024
23	0x3ca0be27	0.019621922
24	0xbc110344	-0.008850876
25	0xbbeef6d9	-0.00729261
26	0x3c54583f	0.012960493
27	0xb978ef88	-0.00023740355
28	0x3c5b5dc0	0.013389051
29	0xbc07ed25	-0.008296286
30	0x3d0e863c	0.034795985
31	0x3cb7569e	0.02238017

model_8/tf.math.add_5/Add/y f4 [1, 32]
0	0xbc9f699a	-0.019459534
1	0x3d7f39df	0.06231105
2	0x3ea8b42d	0.32949963
3	0xbd43d3f8	-0.04780957
4	0x3e89fa3d	0.2694873
5	0x3c5a9b13	0.013342637
6	0x3b8e1a4c	0.004336631
7	0x3eb54bd8	0.35409427
8	0x3e7dc8df	0.24783657
9	0x3e885948	0.26630616
10	0xbc45ed7a	-0.012080545
11	0x3d650706	0.0559149
12	0x3ea3062f	0.31840655
13	0x3e9cff8f	0.30663726
14	0x3caff9eb	0.021481475
15	0x3d08d24b	0.033403676
16	0x3d9bcaaf	0.07607018
17	0x3ce46165	0.027878473
18	0x3d00e713	0.03147037
19	0x3cec23a1	0.028825583
20	0x3be4827e	0.0069735637
21	0xbba08294	-0.0048983786
22	0xba9c7a25	-0.0011938257
23	0x3bbadd75	0.0057026693
24	0x3e8ff247	0.2811453
25	0xbb66291c	-0.0035119718
26	0x3c88c2eb	0.016694507
27	0x3e8580b4	0.26074755
28	0x3c583cb3	0.013198066
29	0xba8979be	-0.0010488553
30	0x3d4592da	0.04823575
31	0xbb9dc0c3	-0.0048142388

model_8/tf.math.multiply_10/Mul/y f4 [1, 32]
0	0x3f82e415	1.0225855
1	0x3f7f8773	0.99816054
2	0x3f7f7972	0.99794686
3	0x3f80daa0	1.0066719
4	0x3f8336e6	1.0251129
5	0x3f7b5736	0.9817995
6	0x3f7f9430	0.9983549
7	0x3f82a4e0	1.0206566
8	0x3f7f5e6f	0.9975347
9	0x3f8157d6	1.010493
10	0x3f7b5bc6	0.9818691
11	0x3f80a992	1.0051749
12	0x3f748039	0.9550815
13	0x3f7f1928	0.9964776
14	0x3f7f053b	0.99617356
15	0x3f7f6623	0.99765223
16	0x3f8266d3	1.018763
17	0x3f7fbb83	0.99895495
18	0x3f829760	1.0202446
19	0x3f7b4aff	0.9816131
20	0x3f7f5cc2	0.9975091
21	0x3f7f8758	0.99815893
22	0x3f7fa07b	0.9985425
23	0x3f7cee06	0.98800695
24	0x3f7f7737	0.9979128
25	0x3f7f7e69	0.9980226
26	0x3f81d6c1	1.0143663
27	0x3f7fe3db	0.99957055
28	0x3f7b8867	0.9825501
29	0x3f7e60f8	0.9936671
30	0x3f7f3aa2	0.9969884
31	0x3f822842	1.0168536

model_8/tf.math.multiply_22/Mul/y f4 [1, 32]
0	0x3f7c3ef9	0.9853359
1	0x3f8c8682	1.0978549
2	0x3fb245e7	1.3927583
3	0x3f7387b6	0.95128953
4	0x3fa35715	1.276095
5	0x3f8169c6	1.0110404
6	0x3f834292	1.0254691
7	0x3fb826f0	1.4386883
8	0x3f9aec8e	1.2103441
9	0x3fa15fe2	1.2607386
10	0x3f7f101d	0.9963396
11	0x3f873e64	1.0565915
12	0x3fafe580	1.3741913
13	0x3faca368	1.3487368
14	0x3f82c1e5	1.0215422
15	0x3f84a5c0	1.0363083
16	0x3f8c49d0	1.0960026
17	0x3f857290	1.0425587
18	0x3f831681	1.0241243
19	0x3f84f0c9	1.0385982
20	0x3f820192	1.0156729
21	0x3f7f82e4	0.998091
22	0x3f7fbaaa	0.998942
23	0x3f811f78	1.0087729
24	0x3fa3bf64	1.2792783
25	0x3f7fa264	0.99857163
26	0x3f8149ff	1.0100707
27	0x3fa01fa1	1.2509652
28	0x3f833ead	1.0253502
29	0x3f7fefaf	0.99975103
30	0x3f8768a1	1.0578805
31	0x3f7f5cf8	0.99751234
